sentiment_classifier.pt (torch, 120266 bytes, 6 tensors)

fc1.weight f4 [128, 163]
-0.036942992 0.014558777 -0.046669863 -0.03875649 -0.0029546586 0.0648217 -0.062979676 0.0853249
0.07724466 0.088572614 -0.07306294 0.07249647 -0.055954784 -0.034471456 -0.06160608 0.029648919
0.074430816 -0.05946257 -0.029523734 0.06281324 -0.031592876 -0.019244004 0.019874895 -0.017896883
0.084592424 -0.050349183 -0.01567016 0.07644689 0.0691381 -0.03221184 -0.02037201 0.05690695
0.054827105 0.01716283 -0.035752315 0.094819605 -0.025553782 -0.028712822 -0.01215073 0.06957349
-0.07435036 -0.060103256 -0.0127811255 -0.0152807515 -0.020599822 0.024909193 0.04421585 0.113095395
0.08503184 -0.04871215 -0.027597161 -0.050164662 0.03263612 0.051969904 -0.056926765 0.056496214
0.05148502 0.029155977 0.07312275 -0.025248654 -0.069772124 -0.047303066 -0.026141463 -0.0024869815
0.017008016 0.06433077 0.06765336 -0.02160448 -0.0009814708 0.0372693 -0.041881725 -0.015002474
-0.007072175 0.06637242 -0.056877866 -0.063724175 -0.067156315 -0.04691734 -0.063814394 -0.059244737
0.029592391 -0.07347289 0.008577348 0.07524791 -0.038497888 0.066300854 -0.042983823 -0.050955538
0.08553223 -0.024737045 0.053450707 -0.048164316 0.09324475 -0.050598558 0.04182498 -0.050087266
0.03334935 -0.013772059 0.0887585 0.056282204 0.031281125 0.05256385 0.029761616 -0.042643853
0.051562596 0.003108978 -0.068668365 -0.03781794 0.08453655 -0.056310732 0.021671088 0.058484342
0.015228082 0.01623842 0.093154006 -0.07519008 -0.038392402 -0.022880124 0.063140176 0.016165307
-0.07307128 0.08677874 -0.05194085 0.07873178 0.014597673 0.020907644 -0.062234864 0.064660534
0.025738321 0.0026737354 0.041210346 -0.04243548 -0.017354973 -0.043888018 0.08179721 -0.016076634
0.09541792 -0.006310791 0.083571 0.040796284 0.076908566 -0.04100436 0.09883112 0.007370851
-0.00023007405 0.037365522 -0.05081022 -0.04860433 -0.029860754 0.0961857 0.06497584 0.028243262
-0.027651314 -0.034097496 0.011403479 0.065366514 0.050041318 0.041471038 -0.076958574 0.023136072
-0.026634706 0.0017854038 -0.015307143 0.09964577 0.042225994 -0.06662413 0.10649712 0.06725991
-0.023246557 0.033094697 -0.008083013 -0.04657865 0.0404428 0.059889697 0.11105106 0.06038889
-0.005113 -0.006541497 -0.014443234 0.1209348 0.10514972 0.043735582 0.014952086 -0.020443464
-0.0069343126 0.033967346 0.111681275 0.10237688 0.07405887 0.08112578 0.011744948 0.0071988204
0.0052481797 -0.024875328 -0.011352107 0.070194945 -0.029971864 0.058157478 0.06765086 0.051913228
0.0021819775 0.04622915 -0.0014586985 0.04018945 0.013277581 -0.030447016 -0.005649976 0.011580597
-0.014705053 -0.00048145652 0.05508026 0.11104565 -0.034515046 0.08526907 0.059820253 0.089522555
-0.06356299 0.047422044 0.016493347 0.11292014 0.097027235 0.094153434 -0.009698856 -0.032429334
0.058503363 0.022850541 -0.08107831 0.11339984 0.09551791 -0.043601416 -0.026376452 0.046466623
-0.026210655 0.030295935 0.031513963 -0.007957357 0.059009198 -0.0033092294 0.040502932 0.07667255
0.04676719 -0.005425979 0.03302105 -0.034532722 -0.03466265 0.08534587 0.003310333 0.050430857
0.015819684 -0.016530836 0.043871332 0.07441443 -0.041880414 0.0050770184 -0.02031063 0.027077882
00000000: 8951 17bd f087 6e3c e628 3fbd 20bf 1ebd
00000010: f2a2 41bb 3dc1 843d 7dfb 80bd d2be ae3d
00000020: 7332 9e3d 8f65 b53d 06a2 95bd 0779 943d
00000030: d830 65bd f131 0dbd a856 7cbd 4ae2 f23c
00000040: 2f6f 983d 068f 73bd c2db f1bc 3aa4 803d
00000050: 8867 01bd 9aa5 9dbc add0 a23c 7c9c 92bc
00000060: cb3e ad3d f23a 4ebd b55e 80bc 3090 9c3d
00000070: 4798 8d3d 90f0 03bd 34e3 a6bc 4317 693d
00000080: 6392 603d 1099 8c3c 0571 12bd c830 c23d
00000090: 2a56 d1bc 2737 ebbc db13 47bc 8c7c 8e3d
000000a0: 0045 98bd d52e 76bd ed67 51bc 1e5c 7abc
000000b0: f5c0 a8bc 5d0e cc3c ae1b 353d 8f9e e73d
000000c0: 2c25 ae3d 6486 47bd 7113 e2bc 7679 4dbd
000000d0: 74ad 053d 65de 543d 0a2c 69bd 9368 673d
000000e0: f5e1 523d 84d8 ee3c 61c1 953d 44d6 cebc
000000f0: b0e4 8ebd dcc0 41bd 9f26 d6bc a0fc 22bb
00000100: 6554 8b3c dabf 833d d88d 8a3d e1fb b0bc
00000110: b2a4 80ba b2a7 183d 2c8c 2bbd f0cc 75bc
00000120: b4bd e7bb 43ee 873d c4f8 68bd d281 82bd
00000130: 4089 89bd 662c 40bd 1fb1 82bd 9caa 72bd
00000140: be6b f23c f478 96bd 0188 0c3c 941b 9a3d
00000150: f6af 1dbd bec8 873d ce0f 30bd c1b6 50bd
00000160: 862b af3d 58a5 cabc 21ef 5a3d f247 45bd
00000170: 1af7 be3d 6f40 4fbd ac50 2b3d 4e28 4dbd
00000180: 5499 083d 34a4 61bc 04c7 b53d 2b88 663d
00000190: a320 003d 314d 573d a2ce f33c 52ab 2ebd
000001a0: 4d33 533d ffbf 4b3b 00a2 8cbd fce6 1abd
000001b0: 8021 ad3d 15a6 66bd 9187 b13c 478d 6f3d
000001c0: 357f 793c 6f06 853c 87c7 be3d 42fd 99bd
000001d0: 5a41 1dbd 196f bbbc a34f 813d 1b6d 843c
000001e0: 65a6 95bd 0db9 b13d eebf 54bd 213e a13d
000001f0: 142b 6f3c 8246 ab3c fce9 7ebd be6c 843d
00000200: 2cd9 d23c d639 2f3b 2ecc 283d d3d0 2dbd
00000210: 042c 8ebc ecc3 33bd 4c85 a73d 25b3 83bc
00000220: 786a c33d c0ca cebb 4627 ab3d 011a 273d
00000230: 3d82 9d3d 30f4 27bd f867 ca3d 2e87 f13b
00000240: 0840 71b9 970c 193d 611e 50bd 5515 47bd
00000250: 8a9e f4bc 02fd c43d 0e12 853d 6a5e e73c
00000260: 0285 e2bc d1a9 0bbd a8d5 3a3c e1de 853d
00000270: 20f8 4c3d 89dd 293d 759c 9dbd dc87 bd3c
00000280: 0731 dabc 3604 ea3a d0ca 7abc 1513 cc3d
00000290: 2af5 2c3d 3b72 88bd 291b da3d 90bf 893d
000002a0: 906f bebc 4e8e 073d 9d6e 04bc 41c9 3ebd
000002b0: 59a7 253d e64e 753d bd6e e33d 575a 773d
000002c0: f48a a7bb 0e5a d6bb 50a3 6cbc aaac f73d
000002d0: bd58 d73d 1524 333d 98f9 743c 0d79 a7bc
000002e0: 3b39 e3bb 5821 0b3d 27b9 e43d f8aa d13d
000002f0: 2dac 973d 4625 a63d e26d 403c 15e4 eb3b
00000300: ecf8 ab3b 58c7 cbbc 30fe 39bc 5ec2 8f3d
00000310: 8e87 f5bc 8936 6e3d 898c 8a3d f7a2 543d
00000320: 82ff 0e3b c75a 3d3d cd31 bfba b19d 243d
00000330: 368a 593c 056c f9bc 6f23 b9bb 8bbc 3d3c
00000340: 76ed 70bc 006c fcb9 d79b 613d e76b e33d
00000350: a65f 0dbd 8da1 ae3d 1506 753d 9a57 b73d
00000360: 502d 82bd 9e3d 423d 0e1d 873c ad42 e73d
00000370: 37b6 c63d 84d3 c03d f3e7 1ebc 9fd4 04bd
00000380: 39a1 6f3d 0f31 bb3c 630c a6bd 2d3e e83d
00000390: e59e c33d 6697 32bd 6e13 d8bc c953 3e3d
000003a0: bab7 d6bc 2e2f f83c c914 013d 935f 02bc
000003b0: a1b3 713d a8df 58bb 67e6 253d 7f06 9d3d
000003c0: f48e 3f3d 69cc b1bb 1541 073d 2f72 0dbd
000003d0: 6cfa 0dbd d1c9 ae3d 2cf2 583b 9690 4e3d
000003e0: 4898 813c ad6b 87bc 6db2 333d 9866 983d
000003f0: cc8a 2bbd 1e5d a63b 7a62 a6bc 6fd2 dd3c

fc1.bias f4 [128]
0.006141822 0.09422806 0.08554694 -0.022015747 0.05441794 0.046738937 -0.02062139 0.0013280165
-0.04680528 0.08704233 0.09157195 -0.018697744 0.026418446 0.005222484 -0.007355518 0.060149007
-0.06309426 0.114964284 0.11317479 0.05613175 -0.024042085 0.07731729 0.11263458 -0.07125162
0.065866575 0.045751225 -0.038725376 -0.0052819983 0.022325512 0.078278944 0.041436765 0.06921731
0.0886881 0.0106294425 -0.02095717 -0.01646888 -0.007998061 0.016046701 0.025923874 0.054118633
-0.010660726 0.027281554 0.0954083 0.042167455 0.06299633 -0.003772792 0.078291245 0.042221047
0.050758388 0.022407712 0.100771025 0.108527154 -0.02672361 -0.046738416 0.0238655 0.029805774
0.03639187 -0.03256829 -0.0009469898 0.064670116 0.07887148 0.036501527 0.04251359 0.10349943
0.025891576 0.008594699 0.028177148 0.07795227 0.04148442 0.08493907 0.06379693 0.08461189
0.0063983705 0.024240218 -0.04336393 0.09969106 -0.0024288215 -0.013437612 0.014517969 -0.016251171
0.11859919 0.04904621 -0.026819669 -0.045123924 -0.009114464 0.054803323 -0.00031025172 0.021448435
0.045668267 0.037881974 0.061162423 0.059044443 0.072781175 -0.05887118 0.117631204 0.03080311
-0.0065436848 0.0944645 -0.012234477 0.10503887 0.02537863 -0.0075143115 0.09298552 0.11213536
0.07219098 0.03518648 -0.0054918607 0.1054645 -0.015415255 -0.0080569945 0.071721606 0.062346395
-0.0003594307 -0.009941897 0.12021206 -0.081753135 0.061809056 0.023152128 0.120315574 -0.038570434
0.02328252 0.107396215 -0.039317228 0.0841764 0.008006834 0.11444532 -0.03021464 0.085591935
00000000: 5641 c93b a4fa c03d 3c33 af3d 5e5a b4bc
00000010: 59e5 5e3d 5471 3f3d 30ee a8bc d710 ae3a
00000020: e5b6 3fbd 4043 b23d 138a bb3d 032c 99bc
00000030: 7f6b d83c 5f21 ab3b 8f06 f1bb ce5e 763d
00000040: 9037 81bd 6572 eb3d 2fc8 e73d 68ea 653d
00000050: e8f3 c4bc 8758 9e3d f5ac e63d 5fec 91bd
00000060: 0ee5 863d a365 3b3d 809e 1ebd 9d14 adbb
00000070: fee3 b63c b650 a03d 99b9 293d cec1 8d3d
00000080: 1ba2 b53d 1d27 2e3c 5fae abbc bfe9 86bc
00000090: 4d0a 03bc 5f74 833c 4e5e d43c 80ab 5d3d
000000a0: 53aa 2ebc 917d df3c 6d65 c33d c8b7 2c3d
000000b0: 3804 813d f240 77bb 2957 a03d faef 2c3d
000000c0: 07e8 4f3d 6190 b73c 0a61 ce3d 7c43 de3d
000000d0: 79eb dabc c870 3fbd 9581 c33c 3d2b f43c
000000e0: a40f 153d 5466 05bd 693f 78ba c471 843d
000000f0: 5f87 a13d a082 153d bb22 2e3d 82f7 d33d
00000100: 921a d43c c8d0 0c3c c3d3 e63c 71a5 9f3d
00000110: 91eb 293d 89f4 ad3d f7a7 823d 0049 ad3d
00000120: 6ca9 d13b 6c93 c63c 609e 31bd d42a cc3d
00000130: dd2c 1fbb 6e29 5cbc c7dc 6d3c 2d21 85bc
00000140: 22e4 f23d aee4 483d ecb4 dbbc ddd3 38bd
00000150: d554 15bc 7379 603d 48a9 a2b9 a1b4 af3c
00000160: a60e 3b3d 212a 1b3d 7385 7a3d 96d8 713d
00000170: 4c0e 953d e822 71bd a1e8 f03d ce56 fc3c
00000180: 686c d6bb 9b76 c13d 1e73 48bc 9e1e d73d
00000190: d8e6 cf3c 9d3a f6bb 316f be3d 39a7 e53d
000001a0: ddd8 933d b31f 103d 11f5 b3bb c6fd d73d
000001b0: 4490 7cbc 7c01 04bc c7e2 923d ef5e 7f3d
000001c0: f971 bcb9 57e3 22bc be31 f63d 306e a7bd
000001d0: 7e2b 7d3d 88a9 bd3c 0368 f63d 08fc 1dbd
000001e0: fcba be3c 8cf2 db3d 1a0b 21bd ad64 ac3d
000001f0: 192f 033c 4f62 ea3d b184 f7bc d34a af3d

fc2.weight f4 [64, 128]
0.12653318 0.0047257547 -0.012986557 0.054471515 0.12943323 0.11962165 0.025319474 0.07784903
0.059982687 -0.037276838 0.004950546 0.040636133 0.010549653 -0.029430503 0.10703442 -0.017674169
-0.043505553 0.12584393 -0.026733518 0.038073424 0.07574011 0.04457181 0.017012473 -0.048421703
-0.011197276 0.030634502 -0.037044153 0.005289423 0.06882581 -0.024519853 0.045058887 0.033427518
-0.011518304 -0.01982493 0.12575333 -0.0053923703 0.13250953 -0.013106183 0.03655263 0.048289355
0.009377931 0.075720705 0.07196833 0.10274735 0.062445052 0.0029056356 0.06738627 0.093706354
0.018346466 -0.033383273 0.081747726 0.13058056 0.023680694 0.06926074 0.034987982 0.07044968
0.09915802 0.09503257 0.113381505 0.06601639 0.029435093 0.034264375 0.026349856 -0.010725028
-0.09734659 0.11879879 0.11082181 0.06128989 -0.011654664 -0.013813803 0.05708997 -0.013635909
0.07765134 0.1270758 -0.03979225 0.08838225 -0.0036661555 -0.018338861 0.07324252 0.08213593
0.054552533 0.055602845 0.04579054 0.06957707 0.015596422 0.018904231 0.021923767 0.046634648
0.06843083 0.062713884 -0.0151356235 0.13408686 0.045253087 -0.049533892 -0.020405967 0.060013797
0.10684318 0.0065387827 0.006915002 -0.016894 -0.024234166 -0.027847411 0.1277206 0.030236846
0.07347767 0.031186603 0.018474652 0.071640864 -0.025802866 0.002846312 0.007099839 0.02738587
0.093817346 0.11579634 0.13267164 -0.036476273 0.049150374 -0.02469888 -0.03685469 -0.08409638
0.053151757 0.009401244 -0.091045015 0.11033549 0.0062062587 0.09026494 0.09509272 0.028549895
0.06716714 -0.008936083 0.009408076 0.13025849 0.033143003 0.06982551 0.05049731 -0.029301262
0.039012186 0.086774 0.027851278 0.0210286 0.0040952927 0.08361367 -0.015992641 -0.026496787
-0.0086400425 -0.034923542 0.055775173 0.065352105 0.047243282 0.07762331 0.048461486 -0.030126315
-0.008045916 0.029874012 -0.079743646 0.076007046 0.013405754 0.00914313 0.025347564 -0.03437056
0.11345242 0.12792698 0.08601686 0.091498636 -0.013494668 -0.007899223 0.108746655 0.08550369
0.13832965 0.019787248 0.047846403 0.008961164 0.029193293 0.042135064 0.06939215 0.09790304
0.09677361 0.13263567 0.08615455 -0.024021672 -0.013799746 0.04600811 0.058458533 0.055012245
0.03612952 0.06590756 0.059361983 0.05984527 0.07101036 0.1050045 0.0008191006 0.079221964
0.016018184 0.018841173 0.07834062 -0.031342223 0.063117914 0.1317259 0.08596379 -0.026107457
0.037325047 0.018550612 -0.07505733 0.06953784 0.049977526 -0.024658497 0.013991243 0.087176934
0.08863005 0.012317445 0.07905405 0.03936554 -0.029344989 0.019354831 0.07368575 0.039367836
0.0514799 0.12587021 0.12947026 0.030594682 -0.017683735 0.088501096 0.07221762 0.06315973
0.033875484 0.092432946 -0.00030215876 0.13578524 0.0060913335 -0.044938583 0.039441008 0.09933861
0.09137201 0.041737996 0.074988514 0.042495478 0.020686992 -0.0024878173 0.08984525 -0.015398031
0.07477755 0.11969177 -0.022933345 0.0464363 0.0653416 0.019559208 0.058173917 0.0026193657
0.13063835 0.039701406 -0.04572372 -0.03419573 0.12668222 -0.036231197 -0.030002652 -0.011249006
00000000: ea91 013e 81da 9a3b 91c5 54bc 861d 5f3d
00000010: 258a 043e 32fc f43d c96a cf3c 506f 9f3d
00000020: 68b0 753d 99af 18bd 3138 a23b 1372 263d
00000030: 74d8 2c3c 3d18 f1bc dd34 db3d 6bc9 90bc
00000040: e132 32bd 3bdd 003e 4000 dbbc e1f2 1b3d
00000050: a11d 9b3d ee90 363d be5d 8b3c d655 46bd
00000060: c874 37bc 35f5 fa3c 9cbb 17bd e552 ad3b
00000070: 8cf4 8c3d dcdd c8bc ab8f 383d 4beb 083d
00000080: 45b7 3cbc e467 a2bc 7bc5 003e 7bb2 b0bb
00000090: 94b0 073e 51bb 56bc 36b8 153d 0fcb 453d
000000a0: e5a5 193c 7513 9b3d 2264 933d 346d d23d
000000b0: 62c6 7f3d 7a6c 3e3b d001 8a3d 1ee9 bf3d
000000c0: 544b 963c e6bc 08bd 5a6b a73d e9b6 053e
000000d0: 04fe c13c 93d8 8d3d 8f4f 0f3d ec47 903d
000000e0: 5c13 cb3d 70a0 c23d 9034 e83d 9a33 873d
000000f0: dd21 f13c cd58 0c3d a7db d73c 07b8 2fbc
00000100: a65d c7bd c84c f33d 8cf6 e23d 1c0b 7b3d
00000110: 34f3 3ebc 4a53 62bc 2cd7 693d 2669 5fbc
00000120: aa07 9f3d 2920 023e 33fd 22bd c101 b53d
00000130: e243 70bb 613b 96bc 2d00 963d e236 a83d
00000140: 7a72 5f3d cfbf 633d dc8e 3b3d 6c7e 8e3d
00000150: 2388 7f3c 0cdd 9a3c 7999 b33c f903 3f3d
00000160: 7725 8c3d 2370 803d 68fb 77bc 114e 093e
00000170: 4d5b 393d 0de4 4abd 6a2a a7bc 07d1 753d
00000180: 99d0 da3d 4943 d63b 3e97 e23b 4965 8abc
00000190: bb86 c6bc 4120 e4bc 30c9 023e 43b3 f73c
000001a0: 767b 963d 0c7b ff3c 2758 973c 72b8 923d
000001b0: 8860 d3bc 3189 3a3b c4a5 e83b 5558 e03c
000001c0: 4f23 c03d a226 ed3d 13db 073e 2568 15bd
000001d0: e751 493d 4e55 cabc f2f4 16bd b93a acbd
000001e0: a8b5 593d ad07 1a3c cf75 babd 93f7 e13d
000001f0: df5d cb3b d3dc b83d f9bf c23d 78e1 e93c
00000200: ed8e 893d a668 12bc 5524 1a3c 7b62 053e
00000210: f5c0 073d ad00 8f3d 44d6 4e3d 3309 f0bc
00000220: 3ecb 1f3d 91b6 b13d 5d28 e43c 2c44 ac3c
00000230: ce31 863b a53d ab3d 0003 83bc ca0f d9bc
00000240: f78e 0dbc fd0b 0fbd 8274 643d 53d7 853d
00000250: 2c82 413d f8f8 9e3d 8d7f 463d 76cb f6bc
00000260: 05d3 03bc 58ba f43c a350 a3bd 95a9 9b3d
00000270: cfa3 5b3c 11cd 153c b2a5 cf3c 25c8 0cbd
00000280: be59 e83d 4aff 023e 9c29 b03d a363 bb3d
00000290: bd18 5dbc be6b 01bc 91b6 de3d 8f1c af3d
000002a0: 4aa6 0d3e de18 a23c 97fa 433d d9d1 123c
000002b0: c626 ef3c d195 2c3d 791d 8e3d 6481 c83d
000002c0: 3e31 c63d a5d1 073e cc71 b03d 19c9 c4bc
000002d0: 5418 62bc 0073 3c3d 3772 6f3d 8554 613d
000002e0: 8cfc 133d 8bfa 863d 8d25 733d 5020 753d
000002f0: e16d 913d 990c d73d e9b8 563a 203f a23d
00000300: 9138 833c ce58 9a3c 0c71 a03d b460 00bd
00000310: f743 813d 28e3 063e c90d b03d 4edf d5bc
00000320: 26e2 183d 74f7 973c a8b7 99bd db69 8e3d
00000330: 3cb5 4c3d 9e00 cabc 873b 653c d289 b23d
00000340: ac83 b53d 1ccf 493c 17e7 a13d c33d 213d
00000350: e764 f0bc 068e 9e3c 8ee8 963d 2b40 213d
00000360: 96dc 523d 1fe4 003e da93 043e b3a1 fa3c
00000370: 7bdd 90bc 1040 b53d d5e6 933d e359 813d
00000380: 05c1 0a3d 7c4d bd3d 106b 9eb9 490b 0b3e
00000390: cf99 c73b 8511 38bd e58c 213d 0b72 cb3d
000003a0: 4021 bb3d 76f5 2a3d 9493 993d bd0f 2e3d
000003b0: c477 a93c a60a 23bb c900 b83d 0648 7cbc
000003c0: f924 993d f520 f53d b6de bbbc fd33 3e3d
000003d0: d1d1 853d a23a a03c c647 6e3d aaa9 2b3b
000003e0: 0fc6 053e f19d 223d cc48 3bbd d210 0cbd
000003f0: fcb8 013e 2a67 14bd 1fc8 f5bc c04d 38bc

fc2.bias f4 [64]
0.05817613 0.12408264 0.013092153 0.022969285 0.07201242 0.03711365 0.015734572 0.02133532
-0.06018376 -0.07919824 0.09238777 0.0397544 -0.043295357 0.07398472 0.051174648 0.075676344
0.00033087272 0.05091237 0.1030767 -0.00090758805 0.10480639 -0.01894495 0.112371355 -0.07922184
0.0870937 -0.014282214 -0.042905763 0.04352817 -0.015975026 0.043250833 -0.066951595 0.10328861
-0.06486565 0.033463534 0.04758861 -0.033069126 -0.01583777 -0.011357035 0.015597422 0.036971837
0.02730749 0.04914977 0.031909168 0.04380051 0.11320567 0.119501404 0.100656554 -0.045431066
0.09514639 0.025729155 0.020934489 0.023372615 0.09709135 -0.0073791663 -0.082387336 0.022980684
-0.07960979 0.036195036 0.02714429 -0.02005499 -0.07606632 -0.0008372447 0.03601052 0.10623712
00000000: 184a 6e3d 0a1f fe3d 7880 563c 152a bc3c
00000010: 3f7b 933d 7c04 183d cae5 803c 69c7 ae3c
00000020: 3f83 76bd b032 a2bd cd35 bd3d 82d5 223d
00000030: 7956 31bd 4d85 973d 829c 513d 33fc 9a3d
00000040: fc78 ad39 7d89 503d e019 d33d 34eb 6dba
00000050: bca4 d63d 7132 9bbc f422 e63d 0f3f a2bd
00000060: 2f5e b23d f3ff 69bc f4bd 2fbd 984a 323d
00000070: 0fde 82bc c927 313d eb1d 89bd fb88 d33d
00000080: 48d8 84bd 0f11 093d 46ec 423d 7e73 07bd
00000090: 36be 81bc db12 3abc 548c 7f3c c86f 173d
000000a0: f5b3 df3c 4551 493d 30b3 023d 2a68 333d
000000b0: 60d8 e73d 27bd f43d 0625 ce3d ed15 3abd
000000c0: 1cdc c23d f3c5 d23c ce7e ab3c ed77 bf3c
000000d0: d4d7 c63d efcc f1bb b1ba a8bd fd41 bc3c
000000e0: 750a a3bd 3f41 143d b45d de3c 5d4a a4bc
000000f0: a9c8 9bbd 8a7a 5bba c47f 133d d992 d93d

fc3.weight f4 [2, 64]
-0.0019124418 -0.14877552 0.07932242 0.05457503 -0.16489598 -0.032253765 -0.17256019 0.013917629
-0.037541516 0.11031122 -0.07298162 -0.09961367 -0.06496318 -0.17250854 0.08813061 -0.15733132
-0.11049537 0.03126156 0.009034643 -0.0719284 -0.11165654 0.047913335 -0.10181187 0.055894785
-0.090215534 -0.07563615 0.0049961456 -0.054689024 -0.0015930207 -0.17366177 0.07798568 -0.16328724
0.033141438 -0.0355736 -0.14118892 -0.032853838 0.059565853 -0.07018821 -0.096227236 -0.022016492
0.01703075 -0.03426635 -0.1434209 -0.022419978 -0.13540639 -0.00092505047 -0.06919844 -0.07278935
0.049043976 -0.0954073 -0.066934526 -0.17233847 -0.06298458 -0.049908727 0.055818435 -0.015045046
-0.009532541 -0.1355431 0.049879115 0.022922467 0.016889036 -0.024202012 -0.01823499 -0.080971204
0.16528949 -0.045631032 -0.00020190817 -0.08779676 0.16534534 -0.05734828 -0.0006786221 -0.039161857
-0.07330329 0.025326597 -0.013872752 0.028046208 -0.104130924 -0.0035157802 -0.10155821 0.1283063
0.06452462 -0.042433377 0.11856736 0.033456825 0.16538092 -0.06760496 0.021964306 -0.09975905
0.099059105 0.054245286 -0.10466482 0.08862163 -0.025068771 -0.063710704 0.07564981 -0.008511078
-0.0032518343 -0.1005221 0.123444356 0.15605374 -0.0752757 -0.05028424 0.13825622 0.105748594
-0.03524338 0.17118517 0.073482856 0.14161335 -0.011685354 0.15448818 0.15760413 0.060974315
0.16820654 -0.07629294 -0.097383015 0.016668731 0.08001747 0.057257332 -0.040443376 -0.09668003
-0.1084331 0.020782124 0.017538996 0.0063772243 -0.009907439 -0.060840417 0.17059895 0.00029836898
00000000: e6aa faba 9c58 18be cb73 a23d 118a 5f3d
00000010: 7eda 28be 861c 04bd 9eb3 30be c406 643c
00000020: 22c5 19bd d9ea e13d 6377 95bd 4002 ccbd
00000030: 6a0b 85bd 14a6 30be d27d b43d 761b 21be
00000040: 664b e2bd 1f0c 003d 0a06 143c 324f 93bd
00000050: 2fac e4bd c640 443d be82 d0bd eef1 643d
00000060: ecc2 b8bd 20e7 9abd b5b6 a33b 9901 60bd
00000070: e8cc d0ba 64d4 31be f5b6 9f3d c534 27be
00000080: 51bf 073d a0b5 11bd d493 10be bf91 06bd
00000090: 53fb 733d d6be 8fbd c912 c5bd ee5b b4bc
000000a0: 1284 8b3c df5a 0cbd eedc 12be 1aaa b7bc
000000b0: f9a7 0abe 167f 72ba e9b7 8dbd 9512 95bd
000000c0: 56e2 483d e764 c3bd f814 89bd 7f79 30be
000000d0: 0ffe 80bd 186d 4cbd dfa1 643d 7f7f 76bc
000000e0: 602e 1cbc cfcb 0abe 0b4e 4c3d e6c7 bb3c
000000f0: e05a 8a3c 4c43 c6bc 8c61 95bc 3bd4 a5bd
00000100: a641 293e 9be7 3abd 50b7 53b9 cace b3bd
00000110: 4a50 293e 08e6 6abd 8fe5 31ba 2f68 20bd
00000120: 0920 96bd b979 cf3c 8a4a 63bc 29c1 e53c
00000130: 9842 d5bd 0169 66bb c0fd cfbd ba62 033e
00000140: 7c25 843d 9fce 2dbd 72d3 f23d 060a 093d
00000150: 9e59 293e 7874 8abd 7dee b33c 794e ccbd
00000160: 80df ca3d 4e30 5e3d 825a d6bd 427f b53d
00000170: 065d cdbc c27a 82bd 4aee 9a3d 0c72 0bbc
00000180: ba1c 55bb 88de cdbd 65d0 fc3d 8dcc 1f3e
00000190: 252a 9abd d9f6 4dbd 0a93 0d3e b892 d83d
000001a0: 5d5b 10bd 2a4b 2f3e 2e7e 963d 1703 113e
000001b0: ed73 3fbc 2632 1e3e fa62 213e 34c0 793d
000001c0: 563e 2c3e 793f 9cbd bf70 c7bd dd8c 883c
000001d0: 33e0 a33d aa86 6a3d f4a7 25bd 2e00 c6bd
000001e0: 2c12 debd 463f aa3c f1ad 8f3c 09f8 d03b
000001f0: d052 22bc cd33 79bd 7eb1 2e3e 686e 9c39

fc3.bias f4 [2]
0.013350726 -0.02681162
00000000: 01bd 5a3c 0ba4 dbbc
