fine_tuned_distilgpt2/adapter_model.safetensors (safetensors, 98592 bytes, 2 tensors)

base_model.model.transformer.h.0.attn.c_attn.lora_A.weight f4 [8, 768]
-0.019000689 0.024693038 0.029088426 0.027296491 0.022776503 0.0054832394 0.033854112 -0.027306309
0.018618368 0.0022916354 -0.03438999 0.031258393 0.0026141314 0.02310395 -0.006798393 0.027495554
-0.012704259 0.008714826 -0.018344443 -0.0013659797 0.022711683 0.019059278 -0.032012206 0.004643358
-0.011599134 -0.0112309875 0.01765684 -0.023024071 0.003979083 0.020451387 0.0029096645 0.020286612
-0.0037827706 -0.02402086 -0.0055275243 0.032806184 0.03358284 -0.031984344 -0.034619257 0.015652886
0.011949283 -0.025098873 -0.0021766927 -0.019225027 0.0011599342 -0.020572508 -0.033365786 0.008153738
-0.031818055 -0.00073083676 0.009574147 0.028861078 -0.029146826 -0.020919329 0.02415349 -0.016334511
0.0014215133 0.02851024 0.01857318 -0.0042944243 0.0041152015 0.013081578 0.037238933 -0.0067030024
0.0053346227 -0.005730236 -0.034082882 0.026165847 0.012927077 -0.023084676 0.037222367 0.031420708
-0.030582912 0.033532023 0.007944502 0.020387657 0.016696816 0.023160012 0.013032502 -0.02783993
-0.029743543 -0.01512223 -0.031650003 0.029126132 -0.0071554026 -0.019871252 -0.024182204 0.022997878
0.033696108 -0.029142126 0.015511489 0.028063685 -0.026839985 0.009456102 0.032556865 -0.010137543
-0.03867386 0.016843362 0.023270307 -0.008591229 -0.03023568 0.037925903 0.014977217 0.010808557
-6.606099e-05 0.008293841 0.0041993493 -0.006552341 0.026197867 -0.03714259 -0.017797627 -0.0132721225
-0.034908313 -0.025819266 0.0074252076 0.01156766 0.007322245 0.033778444 0.028134923 -0.019416481
-0.012356988 -0.01773206 0.021654041 -0.03255805 0.0031642304 -0.037112672 0.0017637069 -0.025730357
0.01659913 0.019060772 0.014940928 -0.02234319 0.024358323 0.0055068834 -0.007919225 -0.012702407
-0.03426503 -0.007860616 -0.026677694 -0.0013658414 -0.03806107 -0.004472788 -0.021589981 0.0047306074
0.013879954 0.00049972336 -0.015292828 -0.026737096 -0.018472617 -0.020459954 -0.016571367 0.036155555
0.015248911 0.0109753655 0.011180951 0.015741043 -0.0025988 0.0012884387 -0.02276109 -0.008691494
0.005302314 -0.03905099 0.02734182 -0.031895973 -0.01782587 -0.019848887 -0.023019366 -0.03540323
-0.03377439 -0.031576026 -0.018979553 -0.024206532 -0.03294032 0.01502109 -0.037869032 0.011041839
-0.018667024 0.03233334 0.0002311315 -0.033720285 0.00051269773 0.0011914808 -0.028198704 -0.014601674
0.036004655 -0.010242507 0.023269812 -0.031089237 0.014532366 0.00095417514 -0.014924572 -0.030312942
0.01906556 0.0015030723 -0.009648251 0.023864666 0.0032784361 0.002352327 -0.027250126 -0.022352012
-0.008246857 -0.0018398457 -0.021794979 -0.020972744 0.0010549786 -0.0044901464 -0.023303047 0.037197765
0.0013075661 0.0071362876 -0.036755174 0.00011148047 -0.019059217 0.02993399 -0.025163695 0.013876672
0.0037911304 -0.018698296 -0.028586105 -0.009207329 0.010980078 -0.003385977 0.019314095 0.031333312
0.01856116 -0.00742198 0.027636075 -0.032664236 -0.019044181 0.03936119 0.029291293 0.02964408
-0.029803881 0.004502023 0.033196222 -0.0070708445 -0.028452622 -0.024669807 -0.021039844 0.017493915
-0.0005936741 -0.036091484 -0.024575345 0.005713653 0.026178295 -0.019303119 -0.038572375 0.0073545654
-0.015170001 -0.027799709 -0.0100471955 0.028533693 0.01551645 0.010817543 0.016695071 0.02947856
00000000: 55a7 9bbc 0e49 ca3c da4a ee3c e49c df3c
00000010: ca95 ba3c bfac b33b 9caa 0a3d 7bb1 dfbc
00000020: 8c85 983c 432f 163b 85dc 0cbd cd08 003d
00000030: d951 2b3b 7f44 bd3c 0ec5 debb 5b3e e13c
00000040: 8625 50bc a1c8 0e3c 1647 96bc ac0a b3ba
00000050: da0d ba3c 3422 9c3c 3b1f 03bd 4f27 983b
00000060: 4b0a 3ebc 2d02 38bc 14a5 903c fa9c bcbc
00000070: f862 823b ab89 a73c 12b0 3e3b 1c30 a63c
00000080: 5ce8 77bb 65c7 c4bc 3c20 b5bb c75f 063d
00000090: 298e 093d 0402 03bd eccc 0dbd 7b3a 803c
000000a0: edc6 433c 279c cdbc d8a6 0ebb ce7d 9dbc
000000b0: ef08 983a ad87 a8bc 90aa 08bd 4297 053c
000000c0: a653 02bd a095 3fba e2dc 1c3c 116e ec3c
000000d0: 53c5 eebc 035f abbc 8add c53c f4cf 85bc
000000e0: 1252 ba3a 4f8e e93c c826 983c 3eb8 8cbb
000000f0: d0d8 863b 1d54 563c da87 183d dca4 dbbb
00000100: 0fce ae3b b4c4 bbbb 7e9a 0bbd c259 d63c
00000110: 17cc 533c 131c bdbc 7b76 183d 00b3 003d
00000120: 0489 fabc e058 093d a829 023c 0404 a73c
00000130: c3c7 883c 11ba bd3c 4686 553c 9110 e4bc
00000140: bba8 f3bc 3bc3 77bc 6fa3 01bd ed99 ee3c
00000150: de77 eabb 09c9 a2bc c219 c6bc 0c66 bc3c
00000160: ee04 0a3d 78bb eebc e623 7e3c d0e5 e53c
00000170: 87df dbbc c4ed 1a3c 595a 053d f017 26bc
00000180: 7b68 1ebd 17fb 893c 5fa1 be3c 3ac2 0cbc
00000190: d1b0 f7bc 3158 1b3d 0063 753c 6016 313c
000001a0: 398a 8ab8 e4e2 073c b29a 893b 05b5 d6bb
000001b0: e99c d63c d422 18bd 54cc 91bc 5173 59bc
000001c0: 05fc 0ebd ed82 d3bc 284f f33b 4886 3d3c
000001d0: 71ef ef3b 445b 0a3d 367b e63c 500f 9fbc
000001e0: f774 4abc d342 91bc d163 b13c 975b 05bd
000001f0: fa5e 4f3b 7503 18bd 2f2c e73a 78c8 d2bc
00000200: e6fa 873c 5625 9c3c cbca 743c 1109 b7bc
00000210: 1b8b c73c 1673 b43b a3bf 01bc c21d 50bc
00000220: 7d59 0cbd d0c9 00bc 2e8b dabc 0806 b3ba
00000230: ede5 1bbd 7790 92bb 79dd b0bc 3603 9b3b
00000240: bf68 633c deff 023a c58e 7abc c107 dbbc
00000250: e353 97bc a29b a7bc adc0 87bc d917 143d
00000260: 92d6 793c 05d2 333c 4f30 373c 5cf3 803c
00000270: a150 2abb d4e0 a83a 7775 babc c566 0ebc
00000280: 09bf ad3b eef3 1fbd f4fb df3c 5aa5 02bd
00000290: 8f07 92bc 229a a2bc 1c93 bcbc fa02 11bd
000002a0: 0457 0abd dd55 01bd 027b 9bbc c74c c6bc
000002b0: 6eec 06bd 051b 763c 8f1c 1bbd d4e8 343c
000002c0: 96eb 98bc f76f 043d e45b 7239 481e 0abd
000002d0: 9066 063a 762b 9c3a f800 e7bc dc3b 6fbc
000002e0: 9e79 133d 30d0 27bc 55a0 be3c dbae febc
000002f0: 2919 6e3c 9c21 7a3a 3186 74bc d952 f8bc
00000300: 612f 9c3c bd02 c53a b313 1ebc d57f c33c
00000310: 08db 563b 8029 1a3b a83b dfbc 911b b7bc
00000320: d31d 07bc fa26 f1ba 628b b2bc 08cf abbc
00000330: 3547 8a3a 1422 93bb 08e6 bebc af5c 183d
00000340: a362 ab3a 85d7 e93b 988c 16bd 9fca e938
00000350: 1322 9cbc 2138 f53c 1824 cebc fb5a 633c
00000360: 9d74 783b 2b2d 99bc 682d eabc 56da 16bc
00000370: c9e5 333c 44e7 5dbb 9838 9e3c 5c57 003d
00000380: 930d 983c 1534 f3bb 0d65 e23c efca 05bd
00000390: 8b02 9cbc 3339 213d 4bf4 ef3c 24d8 f23c
000003a0: 4527 f4bc b585 933b c3f8 073d 8bb2 e7bb
000003b0: 7915 e9bc 5618 cabc c05b acbc 664f 8f3c
000003c0: cba0 1bba aad4 13bd 3c52 c9bc 9839 bb3b
000003d0: dd73 d63c 9321 9ebc 11fe 1dbd 91fe f03b
000003e0: 998b 78bc 37bc e3bc fe9c 24bc 7ebf e93c
000003f0: b538 7e3c 103c 313c 1ac4 883c 057d f13c

base_model.model.transformer.h.0.attn.c_attn.lora_B.weight f4 [2304, 8]
-0.0018440102 0.0029984587 0.001164625 0.0025258837 -0.002142119 0.0026241492 -0.0009338537 0.0025856139
0.0016678895 -0.0029763528 -0.001603432 -0.0024179618 0.0016629747 -0.0026129119 0.002247965 -0.0025507798
0.0032936914 -0.0012381067 -0.0031914935 0.0021834457 -0.0029129277 0.00061489 -0.0025007396 -0.0023839988
0.0022227422 -0.002348734 -0.002482279 0.00046427036 -0.0016225568 -0.0006687651 -0.0008390288 -0.0014540179
-0.002105263 0.003023972 0.0022604682 -0.00018491839 0.0011519009 0.0016655226 0.0007638019 0.002589046
-0.0028354777 0.0009926475 0.0027815981 -0.0030820407 0.0030873718 -0.0027353542 0.0032139015 0.0016432166
0.0025567971 -0.0029283701 -0.0024624974 -0.002748805 0.0019817792 -0.0025610866 0.0016878698 -0.0028348295
0.0019942133 0.0004250511 -0.0022968324 0.0021333485 -0.0023295032 0.00034534594 -0.0011406966 -0.0009736107
-0.0030347747 -0.0023691386 0.0027789043 -0.0025431449 0.003236294 -0.0025954414 0.0026955039 -0.00022898937
0.00018323402 -0.0028755977 0.00036311062 -0.0012835021 0.0019216428 -0.0020591065 0.00030455523 -0.002405404
-0.003388828 -0.001553726 0.0032256688 -0.002983309 0.0033584118 -0.0026291625 0.0030302345 0.0007842228
-0.0009423729 -0.002668488 0.001855577 -0.0031047908 0.00326286 -0.0027715992 0.0028682747 -0.0018867459
0.0032953813 -0.0017882439 -0.0031400733 -0.00025464233 -0.0030185934 7.414153e-05 -0.0021713309 -0.0023783671
-0.0010128637 -5.8772413e-05 0.0009006402 0.00078903144 0.0008679177 0.00105567 -0.0010925699 0.00065999955
0.0033053556 -5.3533313e-05 -0.0032296968 0.0014517566 -0.0034088404 0.002675087 -0.0032831824 -0.0013623323
-0.0023212212 -0.0029176348 0.0023749762 -0.0022890521 0.0031690495 -0.0027075014 0.0027352537 -0.0016103504
0.0032196732 -0.00032578871 -0.003059807 0.0007245319 -0.0030313989 0.0019450447 -0.0031110852 -0.0011750294
0.0026500835 0.003177422 -0.0026571471 0.0025711034 -0.003334395 0.003059041 -0.002864685 0.0014751626
-0.002815909 -0.0022711074 0.00300408 -0.0032180042 0.0034007814 -0.0030494633 0.0033682769 -0.0006839043
0.0006238747 -0.0032704622 -0.00020049194 -0.0031389105 0.002686337 -0.0031851945 0.002215611 -0.0024439795
-0.0005940165 0.0032230115 3.9429004e-05 0.0028766666 -0.002422807 0.0029271492 -0.0024008409 0.0021920167
0.0026536915 0.0020335447 -0.0026237126 0.002980165 -0.0030617295 0.0024767795 -0.0027787734 0.00038492205
-0.0034616154 1.5497691e-05 0.0033064743 -0.0032044642 0.0035318304 -0.0032017534 0.0034926047 0.0018617025
0.0005124084 -0.0015698663 -0.00090357114 0.0007937402 -0.0003436929 -0.00016738781 -0.0012373066 -0.0004665303
0.0025976074 0.0023209155 -0.0026825555 0.0026967397 -0.0032818823 0.0027544152 -0.003064944 0.0011081308
-0.00096008636 -0.0031208692 0.001549352 -0.002504714 0.0030554873 -0.0026900803 0.002230448 -0.0016631744
-0.0028756738 -0.0017399893 0.0027766034 -0.0020478216 0.0031357873 -0.0024359603 0.0025713227 -0.00012155301
0.0033610377 0.0010071155 -0.003195237 0.0010943393 -0.0034219413 0.0025358961 -0.0033343728 -0.0012670229
-0.0012095278 0.0013896936 0.0020393461 -0.0017299947 0.0016041795 -0.00050156895 0.0017225209 0.0008159566
-0.0033320934 -0.0006088079 0.0032549922 -0.0035664954 0.0036573007 -0.0029715414 0.00347017 0.00029798193
-0.0010450281 0.0030175024 8.659903e-05 0.0031105413 -0.0030665093 0.002834533 -0.0027587188 0.002670823
-0.0026701489 0.0027537618 0.0024156389 0.0008192001 0.0002443184 0.0014269778 0.0005494552 0.0026449317
00000000: b7b2 f1ba ca81 443b 55a6 983a 4c89 253b
00000010: cb62 0cbb ebf9 2b3b dccd 74ba 6773 293b
00000020: 169d da3a ea0e 43bb 402a d2ba ab76 1ebb
00000030: 2cf8 d93a 633d 2bbb 9852 133b fc2a 27bb
00000040: f9da 573b f847 a2ba 6028 51bb 2418 0f3b
00000050: d1e6 3ebb 9230 213a 73e3 23bb dd3c 1cbb
00000060: 6dab 113b 38ed 19bb bbad 22bb 5069 f339
00000070: f9ab d4ba 1150 2fba 45f2 5bba bf94 beba
00000080: 74f8 09bb d52d 463b 5d24 143b a7e6 41b9
00000090: 61fb 963a aa4d da3a e139 483a fcac 293b
000000a0: 6cd3 39bb b91b 823a 794b 363b 10fc 49bb
000000b0: 8155 4a3b a143 33bb 52a0 523b 3361 d73a
000000c0: f08f 273b e6e9 3fbb da61 21bb 4c25 34bb
000000d0: bde0 013b e7d7 27bb 833b dd3a 8cc8 39bb
000000e0: 59b1 023b 65d9 de39 7486 16bb a6cf 0b3b
000000f0: 94aa 18bb 8c0f b539 6d83 95ba e839 7fba
00000100: 12e3 46bb 8d43 1bbb 471e 363b e4aa 26bb
00000110: 0118 543b 4818 2abb 0da7 303b de1c 70b9
00000120: 8222 4039 8674 3cbb e25f be39 2f3b a8ba
00000130: a2df fb3a 13f2 06bb b6ac 9f39 fca3 1dbb
00000140: 1917 5ebb 65a6 cbba be65 533b 9f83 43bb
00000150: cd18 5c3b 074e 2cbb e696 463b 4d94 4d3a
00000160: 9309 77ba cde1 2ebb d536 f33a bf79 4bbb
00000170: b5d5 553b b8a3 35bb aaf9 3b3b b04c f7ba
00000180: 53f7 573b 8263 eaba b0c9 4dbb 8481 85b9
00000190: 98d3 45bb 6e7c 9b38 e34c 0ebb 61de 1bbb
000001a0: 11c2 84ba 6682 76b8 f118 6c3a 01d7 4e3a
000001b0: f984 633a 685e 8a3a 9034 8fba d203 2d3a
000001c0: aa9e 583b f588 60b8 52a9 53bb de48 be3a
000001d0: da66 5fbb 8350 2f3b a92a 57bb 4990 b2ba
000001e0: a11f 18bb ca35 3fbb 7da5 1b3b ec03 16bb
000001f0: d4af 4f3b 5670 31bb f141 333b 6512 d3ba
00000200: 2701 533b 9fce aab9 0b87 48bb 83ee 3d3a
00000210: 6faa 46bb dff0 fe3a 59e3 4bbb 7203 9aba
00000220: 06ad 2d3b 4c3c 503b 8823 2ebb f57f 283b
00000230: dd85 5abb 317a 483b 70bd 3bbb 3e5a c13a
00000240: 1d8b 38bb dcd6 14bb 19e0 443b 27e5 52bb
00000250: a5df 5e3b 81d9 47bb 4fbe 5c3b 0a48 33ba
00000260: 868b 233a 4055 56bb 253b 52b9 2eb6 4dbb
00000270: 420d 303b b2be 50bb c933 113b 2c2b 20bb
00000280: c6b7 1bba 2939 533b 9260 2538 7586 3c3b
00000290: f5c7 1ebb 6ad5 3f3b 6d57 1dbb f0a7 0f3b
000002a0: 8ee9 2d3b 3845 053b 98f2 2bbb df4e 433b
000002b0: 4ca7 48bb 7751 223b 151c 36bb 5dcf c939
000002c0: 45dc 62bb 0a01 8237 6fb1 583b fd01 52bb
000002d0: 4876 673b 82d4 51bb 2fe4 643b 5f04 f43a
000002e0: 2553 063a f9c3 cdba a2dd 6cba 0113 503a
000002f0: ae31 b4b9 d384 2fb9 1f2d a2ba a398 f4b9
00000300: 9f3c 2a3b 801a 183b d0cd 2fbb c9bb 303b
00000310: d914 57bb 6b83 343b 3add 48bb b33e 913a
00000320: 4eae 7bba 7f87 4cbb a013 cb3a 2126 24bb
00000330: 923e 483b 0f4c 30bb b52c 123b dffe d9ba
00000340: cd75 3cbb 5a10 e4ba adf7 353b bf34 06bb
00000350: c881 4d3b a2a4 1fbb a383 283b 46ea feb8
00000360: db44 5c3b 3001 843a 2e67 51bb ef6f 8f3a
00000370: a642 60bb 4731 263b 7e85 5abb 3c12 a6ba
00000380: 0589 9eba 6126 b63a 8da6 053b fdc0 e2ba
00000390: 5543 d23a b97b 03ba 36c6 e13a ece5 553a
000003a0: 405f 5abb 6898 1fba b551 553b ddbb 69bb
000003b0: 53af 6f3b 31be 42bb cb6b 633b 753a 9c39
000003c0: 53f9 88ba 4ac1 453b 809c b538 39da 4b3b
000003d0: 7df7 48bb 93c3 393b 9fcb 34bb f908 2f3b
000003e0: aafd 2ebb 7578 343b b24f 1e3b 97bf 563a
000003f0: dc17 8039 6e09 bb3a 5009 103a 9756 2d3b
